Facebook-GNN/model.pth (torch, 118971 bytes, 8 tensors)

bias f4 [64]
000000 cb b8 3a be 8f d8 72 3d 6c 22 3e 3e 33 24 b0 be
       -0.18234555 0.059288558 0.18567818 -0.34402618
000010 13 ef f5 3d 9d ef 0d 3e 65 e9 c8 3d fd 64 fb bd
       0.120084904 0.13860936 0.098101415 -0.12275121
000020 1b b3 91 3d 64 3e 4a be 51 61 80 bd 31 5e 55 bc
       0.0711424 -0.19750363 -0.06268562 -0.013022945
000030 86 c6 ee bd 30 77 b3 3d 01 e9 45 be cc 0f 8e be
       -0.11658959 0.087629676 -0.19327165 -0.27746427
000040 03 0b 23 be 85 85 23 3c a2 c6 83 be cf 29 a9 3d
       -0.1592217 0.009980564 -0.25737482 0.082599275
000050 3f 67 33 3d 1b 74 7a 3d 05 7f d9 bc 95 ad e2 ba
       0.043799635 0.061145883 -0.026549825 -0.0017294163
000060 07 c2 d0 bd c2 02 9e 3d f6 ad bf 3d 86 85 e6 bd
       -0.10193258 0.0771537 0.09359352 -0.11255936
000070 cc 25 a8 bc 24 e5 d4 3c 55 12 08 3e 1a c3 99 bd
       -0.020525835 0.025988169 0.13288243 -0.07507916
000080 b4 c4 45 be db 38 e4 bc 54 8c 69 3e 46 8a 5e bd
       -0.19313318 -0.027859142 0.22807437 -0.054331087
000090 59 94 58 3c 75 fb ef 3d 7a e6 f4 bd a6 9e 1d be
       0.013218963 0.117178835 -0.119580224 -0.15392551
0000a0 e1 b0 f2 bd 73 61 e3 3d a5 a2 70 be f3 5b fb bd
       -0.11850143 0.11102571 -0.23499544 -0.12273397
0000b0 05 85 b3 bb 9c 9d 96 3d b3 70 89 bd 1a fc 5b bd
       -0.0054785036 0.0735428 -0.06710949 -0.05370722
0000c0 51 83 1d be db f7 98 bd 61 f2 fc 3c 0f a4 9f bd
       -0.15382124 -0.0746915 0.030877294 -0.077949636
0000d0 4f 6f 91 bd 54 c9 c4 3d a8 b4 86 3d d7 bc 6b 3d
       -0.071013086 0.09608713 0.06577426 0.05755314
0000e0 d1 23 d6 3d ea 9a 1f 3b 31 04 94 bc a7 d1 4f bd
       0.1045605 0.002435381 -0.018068405 -0.05073705
0000f0 37 07 7e 3d 9e 9f 5c 3d 1d 6a 05 be c5 56 11 be
       0.0620186 0.05386316 -0.1302876 -0.14193256

weight f4 [64, 128]
000000 69 ff ab 3d ab a4 0c 3e 8e b2 5d 3e 09 aa d9 3c
       0.08398325 0.13734691 0.21650144 0.026570337
000010 a6 49 66 3e 7e 3e 7e 3e 94 ba b9 bd 8c 82 56 be
       0.22489032 0.24828526 -0.0906879 -0.20948237
000020 cb b0 f4 3b 0a 4e 1a be 8e e7 a3 be ae ec ae bd
       0.0074673644 -0.15068832 -0.320126 -0.08541237
000030 16 bf 76 3e a2 94 cf be 38 d3 59 bc 6e 1c 07 3e
       0.24096331 -0.40543085 -0.013294987 0.13194439
000040 8e 69 72 3d 1f e7 70 bd 95 fc c3 3d d9 a8 b4 bd
       0.059182696 -0.058814164 0.095696606 -0.08821268
000050 48 3d 6a 3e 4f aa 3f bd 11 55 74 be fb 6c 03 bf
       0.2287494 -0.04679328 -0.23860575 -0.51338166
000060 27 e7 f2 3d 75 0f 2b 3d 93 25 2c 3e 04 00 c1 bd
       0.11860495 0.041762788 0.16811208 -0.09423831
000070 77 f1 8c 3d 68 b3 09 be 85 e6 04 3e f7 7c 45 be
       0.06881993 -0.13447344 0.12978561 -0.19285952
000080 ec 7e 29 be 72 d1 44 3e e5 f0 4c be 9a c3 8c bd
       -0.16552323 0.19220522 -0.20013769 -0.068732455
000090 df 3a 87 3e 5a 34 7c be e4 c0 98 be 4d 03 15 3d
       0.26412103 -0.24629346 -0.29834664 0.0363801
0000a0 e7 f0 80 be cc fe 69 be 88 d6 fc 3d 0d d0 39 3d
       -0.25183794 -0.22851104 0.12345606 0.04536443
0000b0 3b 84 7d 3e dc 30 5c 3e 7e cc 0d be 5f db 56 be
       0.24757473 0.21503013 -0.13847539 -0.20982121
0000c0 6d d8 fb 3c c7 da 31 be c0 e8 1c bd 82 ea c1 3b
       0.030742848 -0.17368613 -0.038307905 0.005917848
0000d0 16 8c 51 be 5a a8 b1 bd 5c aa 2d 3e 28 94 af bd
       -0.20463595 -0.08674689 0.16959518 -0.085731804
0000e0 d5 89 55 bd 6a 0c e6 bd 61 45 66 bc c2 81 85 be
       -0.0521334 -0.112328365 -0.014054627 -0.2607556
0000f0 f3 58 d6 be 4b 9f 30 be 78 6a af bd 72 e3 64 be
       -0.41864738 -0.17248265 -0.08565229 -0.22352389
000100 ce 66 2e bf 80 6b c7 3c 59 4c b4 bc 43 26 e2 3e
       -0.6812562 0.024343252 -0.022009062 0.44169816
000110 d7 20 93 3c 00 f7 8b 3e 71 85 06 3e a9 74 a3 3d
       0.017959995 0.27336884 0.13136841 0.079812355
000120 1a b2 5e 3d be 5d 21 be c0 8f 29 be f3 b2 42 3d
       0.05436907 -0.15758416 -0.16558743 0.04753394
000130 45 d7 0e 3d 81 fd 11 be 03 b3 b6 3e b7 e1 db bd
       0.034873266 -0.1425686 0.3568345 -0.10736411
000140 ab 28 6b be 68 c1 73 3d 96 9b c1 bd bb 5d 9d 3e
       -0.22964732 0.05951062 -0.09453504 0.30735573
000150 fb 42 46 3f 9c b5 69 3c e6 bc 45 3e 67 8e 06 3e
       0.77445954 0.01426449 0.1931034 0.1314026
000160 65 c1 aa 3d 06 70 e4 bc f3 90 46 3e 9e 70 2a 3d
       0.08337668 -0.027885448 0.19391231 0.041611306
000170 f4 76 a2 be 74 45 cc 3e e4 26 bd 3e 17 eb 96 be
       -0.3173138 0.3989674 0.36943734 -0.29476234
000180 f1 25 29 be f5 72 7b bf 85 34 43 3e d3 2f bc 3c
       -0.1651838 -0.98222286 0.19063003 0.022972023
000190 1b 0a ac be 03 f4 9b 3d 34 2c 15 bd 79 9f 47 3e
       -0.3360146 0.07614901 -0.03641911 0.19494428
0001a0 25 19 27 bd 56 cb cb be 76 21 18 3e 20 1a 21 3e
       -0.040795464 -0.3980357 0.14856514 0.15732622
0001b0 3a 03 fb bc c2 04 5b 3b 1d 46 aa 3e 6f 93 f9 3c
       -0.030641187 0.0033419584 0.33256617 0.03046581
0001c0 82 c3 61 3d 60 28 7c be d8 0b 84 bd 2c 83 f4 bd
       0.05511809 -0.24624777 -0.064475715 -0.119390815
0001d0 63 fa 09 bd d8 01 1c bf 00 76 b3 be 0f 11 16 be
       -0.033686053 -0.60940313 -0.35050964 -0.14654945
0001e0 87 e7 46 be 35 b8 1e be e9 a2 1b bd a6 43 48 3e
       -0.19424258 -0.15499957 -0.03799716 0.19557056
0001f0 23 62 8b 3d 41 7a fb 3b cd d4 0e 3e ac 1d 30 be
       0.068058275 0.007674486 0.13948365 -0.17198819
000200 5f 85 8c be a4 0f e5 be 9c 17 14 be 04 0e af be
       -0.27445504 -0.44738495 -0.14462131 -0.3419038
000210 0d a9 11 be 8b 8c 4d bc 82 a4 a3 be fc 1f 4a 3e
       -0.14224644 -0.012545715 -0.31961447 0.19738764
000220 d7 20 d5 3d 5e 2b 69 3e b6 23 e9 3d 56 7c 8f 3e
       0.10406654 0.2277045 0.113837644 0.28024548
000230 e1 66 6b be 0c db e6 bd 82 ed b2 3d 12 65 79 3e
       -0.22988464 -0.112722486 0.08736707 0.24354962
000240 4a 0c 8e bd 1f 8a 51 bd 60 27 07 be 1d 7a 7e 3e
       -0.06935938 -0.051157113 -0.13198614 0.2485127
000250 a5 35 09 bd d4 60 b0 bb 15 ed ad be 42 1c 14 3e
       -0.033498425 -0.0053826366 -0.33969942 0.14463905
000260 bd ff 82 3e a8 87 80 3d b2 8c f3 3d ca 51 52 be
       0.25585738 0.062758744 0.1189207 -0.20539013
000270 e9 7a ba 3e ae 17 3f be e2 7c ba 3d 57 40 22 be
       0.36421898 -0.18661377 0.09105851 -0.15844856
000280 b9 38 c1 bd 82 b2 84 be 7b c9 63 3e 28 0f c3 3b
       -0.09434647 -0.2591744 0.22244827 0.0059527345
000290 33 19 ce 3d b0 50 fe 3e 44 ed 82 bd 7d 8d 86 3e
       0.100634 0.49670935 -0.06392911 0.26279822
0002a0 bb 7d 9f bc ef d3 4b 3e 9c ae fe 3d 09 bb 4f 3e
       -0.019469133 0.19905065 0.12435648 0.20286192
0002b0 ce c2 10 3e 6a c2 89 3e 99 da 95 bd 52 b0 69 3e
       0.14136812 0.2690614 -0.07317085 0.22821167
0002c0 12 c9 a3 3d b6 88 fb bd cd 1a b2 be 13 69 e6 3b
       0.079973355 -0.12281935 -0.34786072 0.007031569
0002d0 a5 a6 f8 bc 93 06 c4 be 1a 1f c3 be 8e 23 21 3e
       -0.0303529 -0.38286266 -0.38109666 0.1573622
0002e0 30 5a 14 3d 25 22 fb be 56 7e 12 3e 4a 5e 99 3d
       0.036218822 -0.49049488 0.14306006 0.07488687
0002f0 73 b3 ba be 1c 46 e5 3e 23 0b de bc 44 49 1b be
       -0.36465034 0.44780052 -0.02710492 -0.15164667
000300 cf da 85 be 16 ed 85 3e c2 58 7a be 7c b1 18 be
       -0.261435 0.26157445 -0.24447921 -0.14911455
000310 b7 73 97 3e 2f 49 0b bf 88 84 df bc b1 5d 0d bf
       0.2958047 -0.54408544 -0.027284876 -0.55221087
000320 de c0 10 3e c5 9b 0c 3e 0c fa 8b be 36 c2 bd bd
       0.14136073 0.13731296 -0.27339208 -0.092655584
000330 5c 4e 1b be b1 1c 0c 3d 1a d3 33 3f c0 71 64 be
       -0.1516661 0.03420705 0.7024399 -0.22309017
000340 e3 d3 e4 bc 5b b0 8d 3d fe 4d 58 be 0e b4 c9 be
       -0.027933067 0.06918403 -0.21123502 -0.39395183
000350 07 ba 42 be 25 43 90 bc a4 5f 16 3e f5 b0 a5 be
       -0.19016276 -0.017610142 0.14684922 -0.3236157
000360 fb bd 7f 3e 7c 2e f2 3e 7b ca 9f be 9c c0 b9 3d
       0.24974816 0.4730109 -0.31209168 0.090699404
000370 bb 0a 47 3c 5d 4b 63 3e 64 31 a5 3e 93 e2 6c bd
       0.012148554 0.22196718 0.32264245 -0.057833266
000380 d7 23 a4 bd 73 7a 7a 3f 73 af a0 be 71 f8 c0 3c
       -0.080146484 0.9784309 -0.31383857 0.023555966
000390 e1 0c 10 3e 9e 09 bd be 09 e3 f3 bd 9b 61 ee be
       0.14067413 -0.369214 -0.11908538 -0.46558842
0003a0 7a e1 4a 3c 29 2f d8 3e 4a c1 9a 3d ab d3 ae ba
       0.012382859 0.4222348 0.07556398 -0.0013338228
0003b0 09 91 6b 3e 66 a5 84 bd a6 c6 0a 3f d2 fc 8c 3d
       0.23004545 -0.0647686 0.54209363 0.06884159
0003c0 b6 e9 05 bc 87 96 70 3e 17 47 8f bc 00 14 95 bd
       -0.008173397 0.23494922 -0.017489953 -0.07279205
0003d0 80 ca 76 be db e4 0f 3e df de 67 3e 4a bd bd 3e
       -0.24100685 0.14052145 0.22643612 0.3705848
0003e0 87 87 0a 3e 27 31 90 bd db 88 ef 3e 94 35 43 be
       0.13528262 -0.07040625 0.467841 -0.19063407
0003f0 f8 42 3b 3e c5 81 b6 3c 87 40 19 be 14 d3 21 3e
       0.18287265 0.022278676 -0.14966021 0.15803176

bias f4 [32]
000000 a9 b1 10 3e 62 f9 21 3d 90 c9 bc 3d d5 73 9e 3c
       0.14130272 0.03954447 0.092181325 0.019342342
000010 88 6f af bd 3e 49 36 3d ad 46 2d 3e 5f 18 45 3d
       -0.08566195 0.044503443 0.16921492 0.048118945
000020 da 29 1c 3d cf 83 f2 bd 7a 84 a1 3d ba 58 6d 3d
       0.03812585 -0.11841547 0.07886596 0.057945944
000030 ef ad 16 3e ff 7e f9 bc 98 a9 3f ba 90 14 21 3e
       0.14714788 -0.030456064 -0.0007311343 0.157305
000040 a7 9d 13 3e 72 d8 3f 3e c4 ba 80 3e db a5 3a 3e
       0.14415608 0.18734911 0.2514249 0.18227331
000050 5f 95 59 3c 26 2e 63 3e d1 63 6f 3d 22 24 00 3d
       0.013280242 0.22185573 0.0584448 0.03128446
000060 ec 25 94 bd 8c f0 a9 bc 03 40 a6 3d 88 2f 7b 3b
       -0.072337955 -0.020744585 0.08117678 0.0038327891
000070 9a f1 ed 3c 02 37 47 bd 8f 05 d5 3d 54 ab 14 be
       0.029045869 -0.048636444 0.10401451 -0.14518481

weight f4 [32, 64]
000000 96 bc a0 3d 77 9f 9d bd 27 3d ae 3e f5 18 e9 3b
       0.0784847 -0.07696431 0.3403103 0.007113571
000010 0f 60 3f 3e a1 4b ca bd b0 53 ee bd bc 77 0b 3d
       0.18688987 -0.09877706 -0.11637056 0.034049734
000020 ed 57 af 3e a2 6e 6d bd 33 3d 47 be b6 09 62 3e
       0.3424677 -0.057966836 -0.1945694 0.22074017
000030 26 55 bf 3d 19 7f a6 3d b0 34 83 be 1d af 09 be
       0.09342413 0.08129711 -0.25626135 -0.13445707
000040 a9 a7 2d 3e fa 76 05 3e 88 50 c3 3e 38 48 4d 3e
       0.16958489 0.13033667 0.38147378 0.2004708
000050 29 6d 4e bd 0a 3e 94 3d e3 b3 8c be 3e 54 8d bd
       -0.050397072 0.072383955 -0.27480993 -0.069008335
000060 e7 ca 4c 3e 35 33 e1 3e d2 a5 9f 3e ec da 79 be
       0.19999276 0.4398438 0.31181198 -0.24399918
000070 3d 84 39 3e 4b 70 e9 bc fa 01 fc 3e 2c f3 d8 3d
       0.18116851 -0.028495928 0.49220258 0.10593256
000080 ef 83 78 3e 09 4a a3 bd a2 68 aa 3d 04 b2 9d 3e
       0.24269079 -0.079731055 0.083207384 0.30799878
000090 22 ff 55 3e 23 38 8d 3e 13 7c 38 3d 93 71 64 bc
       0.20898107 0.2758189 0.0450402 -0.013943094
0000a0 c9 b6 91 bc 96 a5 1f 3e ea 85 49 bd 87 9e 6e be
       -0.017787354 0.1559051 -0.049199976 -0.23302661
0000b0 a5 e8 4b bc b7 f3 b5 3e 98 0d f2 bd ce db 8b 3e
       -0.0124456035 0.35537502 -0.11818999 0.27316135
0000c0 84 1d bc 3e 0c cb 81 3e 52 be 95 3e 80 54 c8 3d
       0.3674127 0.25350225 0.29246765 0.09781742
0000d0 79 75 aa 3e 3b 5b c7 3d a0 42 ac 3e 92 44 80 3d
       0.3329275 0.09734198 0.3364458 0.06263079
0000e0 87 86 1f 3e e7 23 7e 3e 2b 6f a5 bd 91 40 be bd
       0.15578662 0.24818383 -0.08077844 -0.09289659
0000f0 af eb 48 3d 9a 14 cc 3e 37 28 c9 3e 8e 96 79 3e
       0.04905289 0.39859468 0.39288494 0.24373838
000100 12 ae 2f 3e af 8b a4 be 54 50 ba be 3b ad 90 bd
       0.17156246 -0.3213782 -0.3638941 -0.07064291
000110 43 ed 8d 3c a0 bd 6a 3d 3a fe 2c be 5b de c7 3e
       0.01732505 0.057309747 -0.16893855 0.3903683
000120 82 ef 29 3b 3e 23 84 3e a6 b3 ba 3e 5f e6 5f be
       0.0025930111 0.25808138 0.36465186 -0.21865223
000130 ce da 56 3e ec 6e 63 3e 61 77 fc bc b4 5c f0 bd
       0.20981905 0.22210282 -0.030818643 -0.11736432
000140 74 bc 1b bd 6e 9c 19 be f7 19 a7 3e 1f a5 ba 3d
       -0.03802152 -0.1500108 0.32636997 0.091135256
000150 66 cb 33 3e 04 ff 5e 3c a2 54 5c 3e a9 4e 9e be
       0.17558059 0.013610605 0.2151666 -0.30919388
000160 45 f1 8c 3e 73 54 73 3e c6 f9 26 3e c5 4a 38 be
       0.27527824 0.23762684 0.16306219 -0.17997272
000170 04 91 be 3c d5 c3 48 bc c4 54 c5 bd db ee 9d 3e
       0.023262508 -0.012253721 -0.096353084 0.30846295
000180 e9 c8 4f be 23 3e 2c 3e ec c7 53 be 95 10 e5 3d
       -0.20291485 0.16820578 -0.20681733 0.111848034
000190 52 37 b7 3e d9 6c 39 3e f8 e0 94 3e a0 e4 5a 3e
       0.35784394 0.18107928 0.29077888 0.21376276
0001a0 dd 90 a9 3c 6a 3b 62 3d ef 9b c1 bd 17 9d 67 bd
       0.020698959 0.055232443 -0.0945357 -0.056546297
0001b0 36 bf 36 3e 82 15 e3 3e 89 27 4a be d9 c9 60 bc
       0.17846379 0.44352347 -0.19741644 -0.013719999
0001c0 84 fe 80 3e 31 9a 54 3e e1 c1 9a bd 7e 95 a6 3e
       0.2519418 0.20761944 -0.07556511 0.32535928
0001d0 b4 0c d6 3c 5a fa 6a 3e 46 22 87 3e 60 39 20 3e
       0.026129104 0.22947064 0.26393336 0.15646887
0001e0 8b 4f af bd 69 69 1f be 65 a8 64 bd 5a 97 da 3d
       -0.085600935 -0.15567555 -0.055824656 0.10673399
0001f0 1b b8 ae 3e 40 49 42 3e 7d 54 11 3e 77 9b 94 3e
       0.34124836 0.18973255 0.14192386 0.2902486
000200 c6 f5 fa 3d 8e 36 42 3d 98 d7 0d 3e 38 fa 03 bd
       0.12253909 0.04741531 0.13851774 -0.03222105
000210 fa c8 5e bd a7 c9 a2 3e da dc cd bd 9d b6 71 be
       -0.054390885 0.31794474 -0.1005189 -0.23604818
000220 62 2e 94 be a9 9d 81 3e aa fb 69 3d f3 d3 2a be
       -0.28941637 0.25315598 0.05712477 -0.16682415
000230 23 14 c9 3d 12 9a 6b 3e 4e a7 ba bb 2d 9d 97 3d
       0.09818294 0.23007992 -0.005696214 0.07403026
000240 85 67 89 be 78 d4 c4 3c 00 b5 e6 3d e2 e5 b8 be
       -0.26836792 0.024027094 0.11264992 -0.36112887
000250 6f e4 e4 3d 8f 56 2a 3e fc 94 33 bd bb cb 68 bd
       0.11176383 0.16634582 -0.043843254 -0.056834918
000260 62 0b b2 3e 08 a3 58 3e 37 85 9a 3e e7 b1 26 3e
       0.3477431 0.21155941 0.3017976 0.16278802
000270 90 ab 47 3b fd fb a2 bc 89 da 7d bd 26 78 e8 bd
       0.003046725 -0.019895548 -0.06197599 -0.113510415
000280 01 d2 7b 3e f7 94 41 be 6e b5 0e be f8 9e a5 3e
       0.24591829 -0.18904482 -0.13936397 0.32347846
000290 a2 21 3d 3e 98 54 c9 bd fc 62 8a ba 9f 48 71 bc
       0.18469861 -0.09830588 -0.0010558064 -0.014726787
0002a0 3b 8a 30 3e a1 e3 6c bd 5b 5c 94 bc b8 49 cc 3e
       0.1724023 -0.05783427 -0.018110445 0.39899993
0002b0 a4 03 33 3e dc a1 84 3e 6b ca 6c 3e 42 aa 1c 3e
       0.17481858 0.2590474 0.23124091 0.15299323
0002c0 91 5d 16 3e 6f 56 18 3d 50 70 60 bc 89 60 14 be
       0.1468413 0.037191804 -0.013698652 -0.1448995
0002d0 09 49 66 be b8 64 92 3d 55 44 53 be 08 65 c3 3e
       -0.22488798 0.07148117 -0.20631535 0.38163018
0002e0 a5 9b 70 be e2 90 85 3d 33 f2 a2 3e 45 a0 2f bd
       -0.23496874 0.06521775 0.31825408 -0.042877454
0002f0 cb 8e cf bc 4a d8 c4 3d e2 0f a1 3d c0 9f 07 bd
       -0.025336644 0.09611566 0.078643575 -0.033111334
000300 74 49 28 3e 84 f5 80 3e 1c 14 ed 3d 1e db d0 3c
       0.1643427 0.25187314 0.11576101 0.025495108
000310 53 fa d1 bd 8d dd e1 3c f3 29 0f 3e 1e 09 a1 bc
       -0.10252824 0.027571464 0.13980846 -0.019657668
000320 a1 86 4d 3e 75 42 33 3e 4f 2e 89 3e fd 55 7f be
       0.20070888 0.1750582 0.26793143 -0.24935146
000330 cd 1f 97 3d c2 17 c7 3e cc 98 10 bf 59 68 dd bd
       0.073791124 0.38885313 -0.5648315 -0.10810918
000340 13 c2 a6 be 35 dc ac 3e 01 3d 29 3e 52 45 91 be
       -0.32569942 0.33761755 0.16527177 -0.283732
000350 49 31 f4 be 2c ae 95 3e 90 b2 e7 3c 9b 74 8e bd
       -0.47693852 0.29234445 0.028283387 -0.069558345
000360 ed ff 52 3d 00 8d 04 b7 b3 ca 1a 3e 29 67 e2 3d
       0.0515136 -7.900642e-06 0.15116386 0.110548325
000370 d7 10 a5 be e6 71 ab 3d 51 37 4d be 54 39 ca be
       -0.3223941 0.08371334 -0.20040633 -0.39496863
000380 a2 9d 0e 3e 96 83 eb bd 8e 4f a3 bc e4 4e 86 bd
       0.1392732 -0.114997074 -0.019935396 -0.06558016
000390 92 f1 44 3e 28 05 75 3e d1 52 c6 be cb fc 09 3e
       0.19232777 0.23927748 -0.3873506 0.13475339
0003a0 08 18 59 3c bc 19 f0 3d 48 27 f6 bd 93 34 ab be
       0.013250358 0.117236584 -0.12019211 -0.33438548
0003b0 72 01 d2 be ba 82 8f 3e 45 58 72 3d ff 0b 84 3e
       -0.41016728 0.28029424 0.05916621 0.25790402
0003c0 c2 24 96 be 11 72 f0 3d 44 b9 c4 3b 40 50 b5 3d
       -0.2932492 0.117405064 0.0060035307 0.08853197
0003d0 56 58 52 3d 42 12 1a bd ee e1 2b 3b f0 10 65 3e
       0.051353775 -0.03761507 0.0026227194 0.22369742
0003e0 4e 27 3d bd f6 0f 24 3e 5c ac 15 3d 26 15 ea 3e
       -0.046180062 0.16021714 0.036541328 0.4571926
0003f0 f8 c3 15 bf 40 d2 a6 be 14 45 e1 3e 1d 60 e5 3d
       -0.5850215 -0.32582283 0.43998015 0.11199973

bias f4 [16]
000000 dc 0a f9 3d d6 83 bb 3c 75 e5 3f 3e c1 ff 44 3d
       0.121602744 0.022890013 0.18739875 0.04809547
000010 b0 3a 8d 3e 7f 6d 1e 3e 05 2b af 3e 84 3e 43 3e
       0.27583838 0.15471457 0.3421251 0.19066817
000020 5c 49 d0 3d 9e 0d d3 3e 78 c5 0c bd ac 54 e4 bd
       0.10170242 0.41221327 -0.03436801 -0.111489624
000030 97 c9 c2 bd fe 0b 88 3b 2b 43 ef 3d 5c 26 13 3e
       -0.095111065 0.00415182 0.11682733 0.14370102

weight f4 [16, 32]
000000 71 3f b3 3e 35 93 61 3e 1e 8d 87 bd 5e da bf 3e
       0.3500934 0.22028811 -0.06618713 0.37471288
000010 5e af f7 bc 7c 2e ab 3c f2 5f a8 3d 45 7b 16 3f
       -0.030234989 0.020896189 0.08221425 0.58781844
000020 dd f2 6e 3e 2a 68 3c 3e af 3c cf 3d c2 bf e6 3c
       0.23334832 0.1839911 0.10118996 0.02816761
000030 fd 89 ae be 93 80 bf 3e 1c 5b 5e 3e bb b6 bc bd
       -0.34089652 0.37402782 0.21714443 -0.092145406
000040 7a 99 a5 be aa 2c 26 3e 04 36 bf be d4 ad 85 3e
       -0.32343656 0.16227975 -0.37345898 0.26109183
000050 67 25 ad 3e 5c 00 23 3e b6 85 69 3e ec d8 fe bd
       0.33817598 0.15918106 0.22804913 -0.12443718
000060 1f b7 54 3e 56 86 02 be d5 53 80 be aa 59 1b 3e
       0.2077298 -0.12746558 -0.2506396 0.15170923
000070 cb e9 12 3d db 05 12 3d 4f 14 8a 3e 28 86 7a be
       0.035867494 0.035650115 0.2696862 -0.24465239
000080 fb ed 86 bc c8 ba 7c bc a3 59 81 3e e4 68 60 3e
       -0.0164709 -0.0154253915 0.252637 0.21915013
000090 c6 f2 68 ba 62 09 e4 be ef 33 3c 3e 05 66 e4 be
       -0.0008886274 -0.4453841 0.18379186 -0.44609085
0000a0 42 a9 fd 3d f7 54 5b bd a5 c9 67 bc 94 44 0a 3f
       0.12385799 -0.053547826 -0.014147197 0.5401089
0000b0 d5 ab 79 3e d2 42 f6 bc d6 19 54 3d 25 26 12 be
       0.24381955 -0.03006116 0.05178245 -0.14272363
0000c0 01 16 b3 3e 7a cc 63 3d 78 a2 0c 3e 05 2f cd 3d
       0.34977725 0.055614926 0.13733852 0.10018734
0000d0 57 58 10 be 37 8e 80 3e fa 03 97 3e 7a f4 47 3e
       -0.14096199 0.251085 0.2949522 0.19526854
0000e0 a4 4c 8d be 63 63 86 be 07 ee e3 3d 57 68 8c 3e
       -0.27597535 -0.262477 0.111293845 0.27423355
0000f0 e8 cd 80 3e c5 ff 08 3e eb 21 c1 bd 15 0a 76 be
       0.25157094 0.13378818 -0.094302975 -0.24027283
000100 48 34 1b be 9a 94 bf bd 45 c9 5b 3e 11 57 d5 3d
       -0.15156662 -0.093545154 0.21463497 0.10416997
000110 e2 39 81 3e a3 a7 90 3e bb 7a 96 3e 67 f8 9f be
       0.25239474 0.28252897 0.2939051 -0.31244203
000120 1f f4 bb 3e 4a 34 b4 bd 32 68 6c bd 15 30 ca bd
       0.36709687 -0.08799036 -0.057716556 -0.09872452
000130 04 fc c8 3d 80 4d fe be 87 28 d3 be 18 52 ef bd
       0.09813693 -0.49668503 -0.41241857 -0.1168558
000140 ed e9 b2 3d 0f 4a b2 3e 7e e5 c3 3e d6 f2 28 3e
       0.08736024 0.34822127 0.38261026 0.16498885
000150 09 15 22 be e0 ef 6d 3d 16 9b ca bd 65 5a bf bd
       -0.15828337 0.05809009 -0.098928615 -0.09343413
000160 54 38 36 3e 22 b2 d4 bd ac de ae 3e 14 d5 47 3e
       0.17794925 -0.10385539 0.3415426 0.19514877
000170 e6 3f 1f be 5f 2c d2 3e 00 b2 88 bd 75 49 64 3e
       -0.15551719 0.41049477 -0.06674576 0.22293647
000180 9d 9f f6 3e 91 d2 8e be 06 3d a0 3e b0 f5 db 3e
       0.4816865 -0.27895024 0.31296557 0.42960882
000190 17 47 b7 3e 18 ad 83 3e ab 10 aa 3e 93 fa 5d 3e
       0.35796425 0.25717998 0.33215842 0.21677618
0001a0 2d 97 fb be 47 51 07 3e c7 0d 4f be 6e 19 73 3e
       -0.49138775 0.13214599 -0.202201 0.2374017
0001b0 7d c8 f0 3e d0 b5 3e be 81 77 3f be f4 00 e0 bd
       0.4702796 -0.18624043 -0.18697931 -0.10937682
0001c0 83 8a b7 3e f0 a6 c1 bc f9 4c a4 3e 36 4d b8 3e
       0.35847864 -0.023639172 0.32089975 0.35996407
0001d0 e5 46 4e be b3 af b7 bc 42 6e 55 3e e0 04 4c 3d
       -0.20144232 -0.022422647 0.20842841 0.049809337
0001e0 17 30 df 3d c6 22 e0 3e d8 4a 18 3e 7e 6b 03 3e
       0.10897844 0.4377653 0.148723 0.12833974
0001f0 2b 07 08 3e a0 93 02 3e 59 77 e1 bd 05 67 20 3d
       0.13283984 0.12751627 -0.11009092 0.039160747
000200 a2 f9 da bd 1e f8 6c 3e d1 ff fc bd 8a ac a7 be
       -0.10692145 0.23141524 -0.123534806 -0.32748824
000210 fc 71 2e be 1e 35 8e 3d 8b ca e8 3e 43 3a ef 3e
       -0.17035669 0.06943725 0.45467028 0.46724138
000220 2b 1d 7c 3e f0 2d 47 3e 25 6a f7 3e 44 83 45 be
       0.24620502 0.19451118 0.4832317 -0.19288355
000230 60 0f d8 be 8b c3 1b 3e 79 12 bb 3e 80 3e d1 3d
       -0.4219923 0.15211312 0.3653753 0.10216999
000240 37 c2 8d be e9 8d b5 bc 60 d1 ab bd 8a e4 c1 3e
       -0.27687237 -0.022162395 -0.083895445 0.37869674
000250 69 c1 d7 bd d6 4e ab 3e ce 3e 78 bd 85 85 29 3e
       -0.10534937 0.33458585 -0.06060677 0.1655484
000260 cd ef ec bb 72 4f ba bd 55 a3 ad be e0 17 dd 3e
       -0.007230735 -0.09097184 -0.33913675 0.43182278
000270 ae d8 6a 3e 97 18 ee 3c c0 5d c3 3e 48 d2 d2 bc
       0.22934219 0.02906446 0.38157463 -0.025735036
000280 b0 1c a3 3e 33 52 8e 3e e1 00 a3 3e d5 0d e5 bd
       0.31857824 0.27797088 0.31836608 -0.11184279
000290 66 f7 85 bc e5 56 49 be f8 08 ce 3e fb 01 27 be
       -0.01635332 -0.19662054 0.40241218 -0.16309349
0002a0 8e 86 01 3f 19 0a c0 bd d9 f9 9a 3d bc 1b 92 3e
       0.5059594 -0.09376926 0.07567186 0.28536785
0002b0 99 8f 09 bc c4 7d 78 be 33 48 a5 3e 16 97 6d 3e
       -0.008396053 -0.24266726 0.32281646 0.23202166
0002c0 14 bf 04 bc bc a1 95 3e 71 15 fe 3d 73 b1 47 3c
       -0.008102197 0.29224956 0.124064334 0.012188303
0002d0 d3 3d 04 3e 24 9f 74 bd 6b 66 f7 3e 26 86 9a 3d
       0.12914209 -0.05972208 0.48320326 0.07545118
0002e0 23 37 8c bc cc b9 e1 be 61 ff 5e be 66 d4 86 3e
       -0.017116135 -0.44087064 -0.21777107 0.26333922
0002f0 d3 ca 57 3e 28 87 e7 bd a7 93 5d be eb 20 b8 bd
       0.21073465 -0.11305076 -0.21638356 -0.089906536
000300 da 5d 40 3e 39 bc 01 be 35 d4 74 be f1 b0 d2 be
       0.18785802 -0.12669457 -0.23909076 -0.4115062
000310 77 22 72 3b 3e ca 68 be 50 86 c2 3e 24 e3 ad bd
       0.0036946812 -0.227334 0.37993097 -0.08490589
000320 9c a0 e4 3e a6 24 d4 3e b5 77 ae 3e 01 4b dd be
       0.44653785 0.4143421 0.34075704 -0.43221286
000330 cc b2 79 be 23 d1 6e 3d 46 1d b7 bc e6 3b 49 3d
       -0.24384612 0.058304917 -0.022352826 0.04912939
000340 76 db 21 bf ac e0 b9 3d ef 83 1b 3e 5e 3d ad 3e
       -0.63225496 0.09076056 0.15187047 0.33835882
000350 1a 87 55 be 16 44 bb 3e 3e fd bc bc c5 5b 00 be
       -0.20852318 0.36575383 -0.023069974 -0.12535007
000360 7b 66 c7 3d 71 6d c5 3d 6f 97 00 bf e8 b3 00 bf
       0.097363435 0.09640015 -0.5023107 -0.50274515
000370 69 e8 ba 3a 24 5f 98 3e 47 80 d1 3e 35 88 38 3e
       0.0014259937 0.29760087 0.4091818 0.18020709
000380 0b a7 b9 3e 07 5e de 3c 67 55 15 be 16 f5 8e bd
       0.36260256 0.027144445 -0.1458336 -0.0698034
000390 93 29 52 bd 81 24 f8 3e 76 de 9a bd 55 26 3e 3e
       -0.05130918 0.4846535 -0.07561962 0.1856931
0003a0 de d5 d3 3d f3 5a 9b bd eb e0 2e bd 9f b8 50 3e
       0.10343526 -0.075857066 -0.042694967 0.20382927
0003b0 8b d4 ba 3d 22 20 8b 3d b8 69 54 bd ae 08 fb 3e
       0.091225706 0.06793238 -0.051858634 0.4903006
0003c0 b9 8c 40 3e 56 a7 3b 3e 4b 11 0c 3f 3c da 91 be
       0.18803681 0.18325552 0.54713887 -0.28486812
0003d0 77 ab e0 3d ba 5f 90 3e 30 68 41 3d 8f ac 40 be
       0.10970204 0.28198034 0.0472185 -0.18815826
0003e0 d4 e2 ec bc 86 ab 84 3e 2f 4f 82 3e 7d fd 85 be
       -0.028916754 0.25912112 0.25451037 -0.2616996
0003f0 60 84 ee be 06 d6 59 3e f3 ea 96 bd c0 f0 3e 3e
       -0.4658537 0.2127305 -0.07369032 0.18646526

weight f4 [4, 16]
000000 87 d6 80 bd e4 76 7d 3e bd d6 60 3e 2f 41 3b 3e
       -0.06290918 0.24752384 0.21956916 0.18286584
000010 c0 ca b6 be 72 77 43 3e 2c 34 22 bf 4e 03 e5 bc
       -0.3570156 0.19088534 -0.6336086 -0.027955677
000020 4e 6a 51 3e 02 f6 ee be 23 8a b3 be de 38 29 be
       0.20450708 -0.46672064 -0.35066327 -0.165256
000030 bd a7 62 3e 12 ea 44 3e e3 3f 8e 3e 49 f9 a3 be
       0.221343 0.19229916 0.27783117 -0.32026127
000040 b5 e2 ab 3e f6 3a 13 be 10 a1 51 be 81 06 a2 be
       0.335714 -0.1437796 -0.20471597 -0.31645587
000050 03 e1 38 3e 57 3f 30 3e 0e 9c 31 3e f2 62 b3 be
       0.18054585 0.17211662 0.17344686 -0.35036427
000060 8a 14 7e 3e c6 ef 23 be 24 11 91 3e 49 f7 e3 3c
       0.24812523 -0.16009435 0.2833339 0.027827876
000070 f8 37 a8 3c 37 d1 c2 3e 60 95 84 be 83 17 31 be
       0.0205345 0.38050243 -0.25895214 -0.17294125
000080 a1 bf b9 3d 93 d8 57 be e3 b2 b6 bc 7c b9 b7 3d
       0.090697534 -0.2107871 -0.022302097 0.08970925
000090 3e d0 0f be 3b 54 b3 be cb 9d b2 bd 20 b7 12 3e
       -0.14044282 -0.350252 -0.08721503 0.14327669
0000a0 c6 9f 03 3e b7 1f 80 3e 5f c9 7c 3e d1 b8 e6 bc
       0.12853917 0.25024197 0.24686192 -0.0281643
0000b0 9e 32 3d 3c 68 94 24 3e 7a fa df bd 24 dd c0 3e
       0.011547713 0.16072237 -0.109364465 0.37668717
0000c0 f7 ff 0e 3d 67 57 00 bd 79 72 a6 3e 78 59 35 be
       0.034912076 -0.031333353 0.3250921 -0.17709911
0000d0 b7 9e 77 3e 37 98 82 3e 04 7a 95 3e 57 48 4d 3d
       0.24181639 0.25506756 0.29194653 0.050117817
0000e0 93 d7 a2 be 7d be b2 3e 3c 84 54 be e2 7d d3 bb
       -0.31805095 0.34910956 -0.20753568 -0.0064542154
0000f0 b4 04 49 3d a6 2a bb be d3 6d 7f 3e 1c e3 fb 3c
       0.04907675 -0.36555976 0.24944238 0.030747943

bias f4 [4]
000000 dd 62 41 be 8f c2 76 3d d7 10 11 3e 17 df 5b 3e
       -0.1888537 0.06024414 0.1416658 0.21471821
